…
 scale=0.3, seed=0, shear=0.0, show=False, show_boxes=True, show_conf=True, show_labels=True, simplify=True, single_cls=False, source=None, split=val, stream_buffer=False, task=detect, time=None, tracker=botsort.yaml, translate=0.1, val=True, verbose=True, vid_stride=1, visualize=False, warmup_bias_lr=0.1, warmup_epochs=3, warmup_momentum=0.8, weight_decay=0.0005, workers=4, workspace=None\nOverriding model.yaml nc=80 with nc=1\n\n                   from  n    params  module                                       arguments                     \n  0                  -1  1       928  ultralytics.nn.modules.conv.Conv             [3, 32, 3, 2]                 \n  1                  -1  1     18560  ultralytics.nn.modules.conv.Conv             [32, 64, 3, 2]                \n  2                  -1  1     26080  ultralytics.nn.modules.block.C3k2            [64, 128, 1, False, 0.25]     \n  3                  -1  1    147712  ultralytics.nn.modules.conv.Conv             [128, 128, 3, 2]              \n  4                  -1  1    103360  ultralytics.nn.modules.block.C3k2            [128, 256, 1, False, 0.25]    \n  5                  -1  1    590336  ultralytics.nn.modules.conv.Conv             [256, 256, 3, 2]              \n  6                  -1  1    346112  ultralytics.nn.modules.block.C3k2            [256, 256, 1, True]           \n  7                  -1  1   1180672  ultralytics.nn.modules.conv.Conv             [256, 512, 3, 2]              \n  8                  -1  1   1380352  ultralytics.nn.modules.block.C3k2            [512, 512, 1, True]           \n  9                  -1  1    656896  ultralytics.nn.modules.block.SPPF            [512, 512, 5]                 \n 10                  -1  1    990976  ultralytics.nn.modules.block.C2PSA           [512, 512, 1]                 \n 11                  -1  1         0  torch.nn.modules.upsampling.Upsample         [None, 2, 'nearest']          \n 12             [-1, 6]  1         0  ultralytics.nn.modules.conv.Concat           [1]                           \n 13                  -1  1    443776  ultralytics.nn.modules.block.C3k2            [768, 256, 1, False]          \n 14                  -1  1         0  torch.nn.modules.upsampling.Upsample         [None, 2, 'nearest']          \n 15             [-1, 4]  1         0  ultralytics.nn.modules.conv.Concat           [1]                           \n 16                  -1  1    127680  ultralytics.nn.modules.block.C3k2            [512, 128, 1, False]          \n 17                  -1  1    147712  ultralytics.nn.modules.conv.Conv             [128, 128, 3, 2]              \n 18            [-1, 13]  1         0  ultralytics.nn.modules.conv.Concat           [1]                           \n 19                  -1  1    345472  ultralytics.nn.modules.block.C3k2            [384, 256, 1, False]          \n 20                  -1  1    590336  ultralytics.nn.modules.conv.Conv             [256, 256, 3, 2]              \n 21            [-1, 10]  1         0  ultralytics.nn.modules.conv.Concat           [1]                           \n 22                  -1  1   1511424  ultralytics.nn.modules.block.C3k2            [768, 512, 1, True]           \n 23        [16, 19, 22]  1    819795  ultralytics.nn.modules.head.Detect           [1, 16, None, [128, 256, 512]]\nYOLO11s summary: 182 layers, 9,428,179 parameters, 9,428,163 gradients, 21.5 GFLOPs\n\nTransferred 493/499 items from pretrained weights\nFreezing layer 'model.23.dfl.conv.weight'\n\u001b[34m\u001b[1mAMP: \u001b[0mrunning Automatic Mixed Precision (AMP) checks...\n\u001b[34m\u001b[1mAMP: \u001b[0mchecks passed ✅\n\u001b[34m\u001b[1mtrain: \u001b[0mFast image access ✅
…
